{"format": "torch", "nodes": [{"name": "model", "id": 6412140352, "class_name": "Basic(\n  (layer1): MuReNNDirect(\n    (dtcwt): DTCWTDirect()\n    (down): ModuleList(\n      (0-7): 8 x DTCWTDirect()\n    )\n    (conv1d): ParameterList(\n        (0): Object of type: Conv1d\n        (1): Object of type: Conv1d\n        (2): Object of type: Conv1d\n        (3): Object of type: Conv1d\n        (4): Object of type: Conv1d\n        (5): Object of type: Conv1d\n        (6): Object of type: Conv1d\n        (7): Object of type: Conv1d\n      (0): Conv1d(1, 33, kernel_size=(10,), stride=(1,), padding=same, bias=False)\n      (1): Conv1d(1, 33, kernel_size=(10,), stride=(1,), padding=same, bias=False)\n      (2): Conv1d(1, 33, kernel_size=(10,), stride=(1,), padding=same, bias=False)\n      (3): Conv1d(1, 33, kernel_size=(10,), stride=(1,), padding=same, bias=False)\n      (4): Conv1d(1, 33, kernel_size=(10,), stride=(1,), padding=same, bias=False)\n      (5): Conv1d(1, 33, kernel_size=(10,), stride=(1,), padding=same, bias=False)\n      (6): Conv1d(1, 33, kernel_size=(10,), stride=(1,), padding=same, bias=False)\n      (7): Conv1d(1, 33, kernel_size=(10,), stride=(1,), padding=same, bias=False)\n    )\n  )\n  (dirac): Conv1d(264, 10, kernel_size=(1,), stride=(1,), padding=same, bias=False)\n  (layer2): MuReNNDirect(\n    (dtcwt): DTCWTDirect()\n    (down): ModuleList(\n      (0-3): 4 x DTCWTDirect()\n    )\n    (conv1d): ParameterList(\n        (0): Object of type: Conv1d\n        (1): Object of type: Conv1d\n        (2): Object of type: Conv1d\n        (3): Object of type: Conv1d\n      (0): Conv1d(10, 330, kernel_size=(1,), stride=(1,), padding=same, groups=10, bias=False)\n      (1): Conv1d(10, 330, kernel_size=(1,), stride=(1,), padding=same, groups=10, bias=False)\n      (2): Conv1d(10, 330, kernel_size=(1,), stride=(1,), padding=same, groups=10, bias=False)\n      (3): Conv1d(10, 330, kernel_size=(1,), stride=(1,), padding=same, groups=10, bias=False)\n    )\n  )\n  (fc): Linear(in_features=1320, out_features=10, bias=True)\n  (mixstyle): MixStyle(p=0.0, alpha=0.2, eps=1e-06, mix=random)\n)", "parameters": [["layer1.conv1d.0.weight", [33, 1, 10]], ["layer1.conv1d.1.weight", [33, 1, 10]], ["layer1.conv1d.2.weight", [33, 1, 10]], ["layer1.conv1d.3.weight", [33, 1, 10]], ["layer1.conv1d.4.weight", [33, 1, 10]], ["layer1.conv1d.5.weight", [33, 1, 10]], ["layer1.conv1d.6.weigh
…
